…
            " Layer (type)                   Output Shape         Param #     Connected to                     \n",
            "==================================================================================================\n",
            " input_1 (InputLayer)           [(None, 150, 150, 3  0           []                               \n",
            "                                )]                                                                \n",
            "                                                                                                  \n",
            " conv2d (Conv2D)                (None, 75, 75, 32)   864         ['input_1[0][0]']                \n",
            "                                                                                                  \n",
            " batch_normalization (BatchNorm  (None, 75, 75, 32)  128         ['conv2d[0][0]']                 \n",
            " alization)                                                                                       \n",
            "                                                                                                  \n",
            " swish (Swish)                  (None, 75, 75, 32)   0           ['batch_normalization[0][0]']    \n",
            "                                                                                                  \n",
            " depthwise_conv2d (DepthwiseCon  (None, 75, 75, 32)  288         ['swish[0][0]']                  \n",
            " v2D)                                                                                             \n",
            "                                                                                                  \n",
            " batch_normalization_1 (BatchNo  (None, 75, 75, 32)  128         ['depthwise_conv2d[0][0]']       \n",
            " rmalization)                                                                                     \n",
            "                                                                                                  \n",
            " swish_1 (Swish)                (None, 75, 75, 32)   0           ['batch_normalization_1[0][0]']  \n",
            "                                                                                                  \n",
            " lambda (Lambda)                (None, 1, 1, 32)     0           ['swish_1[0][0]']                \n",
            "                                                                                                  \n",
            " conv2d_1 (Conv2D)              (None, 1, 1, 8)      264         ['lambda[0][0]']                 \n",
            "                                                                                                  \n",
            " swish_2 (Swish)                (None, 1, 1, 8)      0           ['conv2d_1[0][0]']               \n",
            "                                                                                                  \n",
            " conv2d_2 (Conv2D)              (None, 1, 1, 32)     288         ['swish_2[0][0]']                \n",
            "                                                                                                  \n",
            " activation (Activation)        (None, 1, 1, 32)     0           ['conv2d_2[0][0]']               \n",
            "                                                                                                  \n",
            " multiply (Multiply)            (None, 75, 75, 32)   0           ['activation[0][0]',             \n",
            "                                                                  'swish_1[0][0]']                \n",
            "                                                                                                  \n",
            " conv2d_3 (Conv2D)              (None, 75, 75, 16)   512         ['multiply[0][0]']               \n",
            "                                                                                                  \n",
            " batch_normalization_2 (BatchNo  (None, 75, 75, 16)  64          ['conv2d_3[0][0]']               \n",
            " rmalization)                                                                                     \n",
            "                                                                                                  \n",
            " conv2d_4 (Conv2D)              (None, 75, 75, 96)   1536        ['batch_normalization_2[0][0]']  \n",
            "                                                                                                  \n",
            " batch_normalization_3 (BatchNo  (None, 75, 75, 96)  384         ['conv2d_4[0][0]']               \n",
            " rmalization)                                                                                     \n",
            "                                                                                                  \n",
            " swish_3 (Swish)                (None, 75, 75, 96)   0           ['batch_normalization_3[0][0]']  \n",
            "                                                                                                  \n",
            " depthwise_conv2d_1 (DepthwiseC  (None, 38, 38, 96)  864         ['swish_3[0][0]']                \n",
            " onv2D)                                                                                           \n",
            "                                                                                                  \n",
            " batch_normalization_4 (BatchNo  (None, 38, 38, 96)  384         ['depthwise_conv2d_1[0][0]']     \n",
            " rmalization)                                                                                     \n",
            "                                                                                                  \n",
            " swish_4 (Swish)                (None, 38, 38, 96)   0           ['batch_normalization_4[0][0]']  \n",
            "                                                                                                  \n",
            " lambda_1 (Lambda)              (None, 1, 1, 96)     0           ['swish_4[0][0]']                \n",
            "                                                                                                  \n",
            " conv2d_5 (Conv2D)              (None, 1, 1, 4)      388         ['lambda_1[0][0]']               \n",
            "                                                                                                  \n",
            " swish_5 (Swish)                (None, 1, 1, 4)      0           ['conv2d_5[0][0]']               \n",
            "                                                                                                  \n",
            " conv2d_6 (Conv2D)              (None, 1, 1, 96)     480         ['swish_5[0][0]']                \n",
            "                                                                                                  \n",
            " activation_1 (Activation)      (None, 1, 1, 96)     0           ['conv2d_6[0][0]']               \n",
            "                                                                                                  \n",
            " multiply_1 (Multiply)          (None, 38, 38, 96)   0           ['activation_1[0][0]',           \n",
            "                                                                  'swish_4[0][0]']                \n",
            "                                                                                                  \n",
            " conv2d_7 (Conv2D)              (None, 38, 38, 24)   2304        ['multiply_1[0][0]']             \n",
            "                                                                                                  \n",
            " batch_normalization_5 (BatchNo  (None, 38, 38, 24)  96          ['conv2d_7[0][0]']               \n",
            " rmalization)                                                                                     \n",
            "                                                                                                  \n",
            " conv2d_8 (Conv2D)              (None, 38, 38, 144)  3456        ['batch_normalization_5[0][0]']  \n",
            "                                                                                                  \n",
            " batch_normalization_6 (BatchNo  (None, 38, 38, 144)  576        ['conv2d_8[0][0]']               \n",
            " rmalization)                                                                                     \n",
            "                                                                                                  \n",
            " swish_6 (Swish)                (None, 38, 38, 144)  0           ['batch_normalization_6[0][0]']  \n",
            "                                                                                                  \n",
            " depthwise_conv2d_2 (DepthwiseC  (None, 38, 38, 144)  1296       ['swish_6[0][0]']                \n",
            " onv2D)                                                                                           \n",
            "                                                                                                  \n",
            " batch_normalization_7 (BatchNo  (None, 38, 38, 144)  576        ['depthwise_conv2d_2[0][0]']     \n",
            " rmalization)                                                                                     \n",
            "                                                                                                  \n",
            " swish_7 (Swish)                (None, 38, 38, 144)  0           ['batch_normalization_7[0][0]']  \n",
            "                                                                                                  \n",
            " lambda_2 (Lambda)              (None, 1, 1, 144)    0           ['swish_7[0][0]']                \n",
            "                                                                                                  \n",
            " conv2d_9 (Conv2D)              (None, 1, 1, 6)      870         ['lambda_2[0][0]']               \n",
            "                                                                                                  \n",
            " swish_8 (Swish)                (None, 1, 1, 6)      0           ['conv2d_9[0][0]']               \n",
            "                                                                                                  \n",
            " conv2d_10 (Conv2D)             (None, 1, 1, 144)    1008        ['swish_8[0][0]']                \n",
            "                                                                                                  \n",
            " activation_2 (Activation)      (None, 1, 1, 144)    0           ['conv2d_10[0][0]']              \n",
            "                                                                                                  \n",
            " multiply_2 (Multiply)          (None, 38, 38, 144)  0           ['activation_2[0][0]',           \n",
            "                                                                  'swish_7[0][0]']                \n",
            "                                                                                                  \n",
            " conv2d_11 (Conv2D)             (None, 38, 38, 24)   3456        ['multiply_2[0][0]']             \n",
            "                                                                                                  \n",
            " batch_normalization_8 (BatchNo  (None, 38, 38, 24)  96          ['conv2d_11[0][0]']              \n",
            " rmalization)                                                                                     \n",
            "                                                                                                  \n",
            " drop_connect (DropConnect)     (None, 38, 38, 24)   0           ['batch_normalization_8[0][0]']  \n",
            "                                                                                                  \n",
            " add (Add)                      (None, 38, 38, 24)   0           ['drop_connect[0][0]',           \n",
            "                                                                  'batch_normalization_5[0][0]']  \n",
            "                                                                                                  \n",
            " conv2d_12 (Conv2D)             (None, 38, 38, 144)  3456        ['add[0][0]']                    \n",
            "                                                                                                  \n",
            " batch_normalization_9 (BatchNo  (None, 38, 38, 144)  576        ['conv2d_12[0][0]']              \n",
            " rmalization)                                                                                     \n",
            "                                                                                                  \n",
            " swish_9 (Swish)                (None, 38, 38, 144)  0           ['batch_normalization_9[0][0]']  \n",
            "                                                                                                  \n",
            " depthwise_conv2d_3 (DepthwiseC  (None, 19, 19, 144)  3600       ['swish_9[0][0]']                \n",
            " onv2D)                                                                                           \n",
            "                                                                                                  \n",
            " batch_normalization_10 (BatchN  (None, 19, 19, 144)  576        ['depthwise_conv2d_3[0][0]']     \n",
            " ormalization)                                                                                    \n",
            "                                                                                                  \n",
            " swish_10 (Swish)               (None, 19, 19, 144)  0           ['batch_normalization_10[0][0]'] \n",
            "                                                                                                  \n",
            " lambda_3 (Lambda)              (None, 1, 1, 144)    0           ['swish_10[0][0]']               \n",
            "                                                                                                  \n",
            " conv2d_13 (Conv2D)             (None, 1, 1, 6)      870         ['lambda_3[0][0]']               \n",
            "                                                                                                  \n",
            " swish_11 (Swish)               (None, 1, 1, 6)      0           ['conv2d_13[0][0]']              \n",
            "                                                                                                  \n",
            " conv2d_14 (Conv2D)             (None, 1, 1, 144)    1008        ['swish_11[0][0]']               \n",
            "                                                                                                  \n",
            " activation_3 (Activation)      (None, 1, 1, 144)    0           ['conv2d_14[0][0]']              \n",
            "                                                                                                  \n",
            " multiply_3 (Multiply)          (None, 19, 19, 144)  0           ['activation_3[0][0]',           \n",
            "                                                                  'swish_10[0][0]']               \n",
            "                                                                                                  \n",
            " conv2d_15 (Conv2D)             (None, 19, 19, 40)   5760        ['multiply_3[0][0]']             \n",
            "                                                                                                  \n",
            " batch_normalization_11 (BatchN  (None, 19, 19, 40)  160         ['conv2d_15[0][0]']              \n",
            " ormalization)                                                                                    \n",
            "                                                                                                  \n",
            " conv2d_16 (Conv2D)             (None, 19, 19, 240)  9600        ['batch_normalization_11[0][0]'] \n",
            "                                                                                                  \n",
            " batch_normalization_12 (BatchN  (None, 19, 19, 240)  960        ['conv2d_16[0][0]']              \n",
            " ormalization)                                                                                    \n",
            "                                                                                                  \n",
            " swish_12 (Swish)               (None, 19, 19, 240)  0           ['batch_normalization_12[0][0]'] \n",
            "                                                                                                  \n",
            " depthwise_conv2d_4 (DepthwiseC  (None, 19, 19, 240)  6000       ['swish_12[0][0]']               \n",
            " onv2D)                                                                                           \n",
            "                                                                                                  \n",
            " batch_normalization_13 (BatchN  (None, 19, 19, 240)  960        ['depthwise_conv2d_4[0][0]']     \n",
            " ormalization)                                                                                    \n",
            "                                                                                                  \n",
            " swish_13 (Swish)               (None, 19, 19, 240)  0           ['batch_normalization_13[0][0]'] \n",
            "                                                                                                  \n",
            " lambda_4 (Lambda)              (None, 1, 1, 240)    0           ['swish_13[0][0]']               \n",
            "                                                                                                  \n",
            " conv2d_17 (Conv2D)             (None, 1, 1, 10)     2410        ['lambda_4[0][0]']               \n",
            "                                                                                                  \n",
            " swish_14 (Swish)               (None, 1, 1, 10)     0           ['conv2d_17[0][0]']              \n",
            "                                                                                                  \n",
            " conv2d_18 (Conv2D)             (None, 1, 1, 240)    2640        ['swish_14[0][0]']               \n",
            "                                                                                                  \n",
            " activation_4 (Activation)      (None, 1, 1, 240)    0           ['conv2d_18[0][0]']              \n",
            "                                                                                                  \n",
            " multiply_4 (Multiply)          (None, 19, 19, 240)  0           ['activation_4[0][0]',           \n",
            "                                                                  'swish_13[0][0]']               \n",
            "                                                                                                  \n",
            " conv2d_19 (Conv2D)             (None, 19, 19, 40)   9600        ['multiply_4[0][0]']             \n",
            "                                                                                                  \n",
            " batch_normalization_14 (BatchN  (None, 19, 19, 40)  160         ['conv2d_19[0][0]']              \n",
            " ormalization)                                                                                    \n",
            "                                                                                                  \n",
            " drop_connect_1 (DropConnect)   (None, 19, 19, 40)   0           ['batch_normalization_14[0][0]'] \n",
            "                                                                                                  \n",
            " add_1 (Add)                    (None, 19, 19, 40)   0           ['drop_connect_1[0][0]',         \n",
            "                                                                  'batch_normalization_11[0][0]'] \n",
            "                                                                                                  \n",
            " conv2d_20 (Conv2D)             (None, 19, 19, 240)  9600        ['add_1[0][0]']                  \n",
            "                                                                                                  \n",
            " batch_normalization_15 (BatchN  (None, 19, 19, 240)  960        ['conv2d_20[0][0]']              \n",
            " ormalization)                                                                                    \n",
            "                                                                                                  \n",
            " swish_15 (Swish)               (None, 19, 19, 240)  0           ['batch_normalization_15[0][0]'] \n",
            "                                                                                                  \n",
            " depthwise_conv2d_5 (DepthwiseC  (None, 10, 10, 240)  2160       ['swish_15[0][0]']               \n",
            " onv2D)                                                                                           \n",
            "                                                                                                  \n",
            " batch_normalization_16 (BatchN  (None, 10, 10, 240)  960        ['depthwise_conv2d_5[0][0]']     \n",
            " ormalization)                                                                                    \n",
            "                                                                                                  \n",
            " swish_16 (Swish)               (None, 10, 10, 240)  0           ['batch_normalization_16[0][0]'] \n",
            "                                                                                                  \n",
            " lambda_5 (Lambda)              (None, 1, 1, 240)    0           ['swish_16[0][0]']               \n",
            "                                                                                                  \n",
            " conv2d_21 (Conv2D)             (None, 1, 1, 10)     2410        ['lambda_5[0][0]']               \n",
            "                                                                                                  \n",
            " swish_17 (Swish)               (None, 1, 1, 10)     0           ['conv2d_21[0][0]']              \n",
            "                                                                                                  \n",
            " conv2d_22 (Conv2D)             (None, 1, 1, 240)    2640        ['swish_17[0][0]']               \n",
            "                                                                                                  \n",
            " activation_5 (Activation)      (None, 1, 1, 240)    0           ['conv2d_22[0][0]']              \n",
            "                                                                                                  \n",
            " multiply_5 (Multiply)          (None, 10, 10, 240)  0           ['activation_5[0][0]',           \n",
            "                                                                  'swish_16[0][0]']               \n",
            "                                                                                                  \n",
            " conv2d_23 (Conv2D)             (None, 10, 10, 80)   19200       ['multiply_5[0][0]']             \n",
            "                                                                                                  \n",
            " batch_normalization_17 (BatchN  (None, 10, 10, 80)  320         ['conv2d_23[0][0]']              \n",
            " ormalization)                                                                                    \n",
            "                                                                                                  \n",
            " conv2d_24 (Conv2D)             (None, 10, 10, 480)  38400       ['batch_normalization_17[0][0]'] \n",
            "                                                                                                  \n",
            " batch_normalization_18 (BatchN  (None, 10, 10, 480)  1920       ['conv2d_24[0][0]']              \n",
            " ormalization)                                                                                    \n",
            "                                                                                                  \n",
            " swish_18 (Swish)               (None, 10, 10, 480)  0           ['batch_normalization_18[0][0]'] \n",
            "                                                                                                  \n",
            " depthwise_conv2d_6 (DepthwiseC  (None, 10, 10, 480)  4320       ['swish_18[0][0]']               \n",
            " onv2D)                                                                                           \n",
            "                                                                                                  \n",
            " batch_normalization_19 (BatchN  (None, 10, 10, 480)  1920       ['depthwise_conv2d_6[0][0]']     \n",
            " ormalization)                                                                                    \n",
            "                                                                                                  \n",
            " swish_19 (Swish)               (None, 10, 10, 480)  0           ['batch_normalization_19[0][0]'] \n",
            "                                                                                                  \n",
            " lambda_6 (Lambda)              (None, 1, 1, 480)    0           ['swish_19[0][0]']               \n",
            "                                                                                                  \n",
            " conv2d_25 (Conv2D)             (None, 1, 1, 20)     9620        ['lambda_6[0][0]']               \n",
            "                                                                                                  \n",
            " swish_20 (Swish)               (None, 1, 1, 20)     0           ['conv2d_25[0][0]']              \n",
            "                                                                                                  \n",
            " conv2d_26 (Conv2D)             (None, 1, 1, 480)    10080       ['swish_20[0][0]']               \n",
            "                                                                                                  \n",
            " activation_6 (Activation)      (None, 1, 1, 480)    0           ['conv2d_26[0][0]']              \n",
            "                                                                                                  \n",
            " multiply_6 (Multiply)          (None, 10, 10, 480)  0           ['activation_6[0][0]',           \n",
            "                                                                  'swish_19[0][0]']               \n",
            "                                                                                                  \n",
            " conv2d_27 (Conv2D)             (None, 10, 10, 80)   38400       ['multiply_6[0][0]']             \n",
            "                                                                                                  \n",
            " batch_normalization_20 (BatchN  (None, 10, 10, 80)  320         ['conv2d_27[0][0]']              \n",
            " ormalization)                                                                                    \n",
            "                                                                                                  \n",
            " drop_connect_2 (DropConnect)   (None, 10, 10, 80)   0           ['batch_normalization_20[0][0]'] \n",
            "                                                                                                  \n",
            " add_2 (Add)                    (None, 10, 10, 80)   0           ['drop_connect_2[0][0]',         \n",
            "                                                                  'batch_normalization_17[0][0]'] \n",
            "                                                                                                  \n",
            " conv2d_28 (Conv2D)             (None, 10, 10, 480)  38400       ['add_2[0][0]']                  \n",
            "                                                                                                  \n",
            " batch_normalization_21 (BatchN  (None, 10, 10, 480)  1920       ['conv2d_28[0][0]']              \n",
            " ormalization)                                                                                    \n",
            "                                                                                                  \n",
            " swish_21 (Swish)               (None, 10, 10, 480)  0           ['batch_normalization_21[0][0]'] \n",
            "                                                                                                  \n",
            " depthwise_conv2d_7 (DepthwiseC  (None, 10, 10, 480)  4320       ['swish_21[0][0]']               \n",
            " onv2D)                                                                                           \n",
            "                                                                                                  \n",
            " batch_normalization_22 (BatchN  (None, 10, 10, 480)  1920       ['depthwise_conv2d_7[0][0]']     \n",
            " ormalization)                                                                                    \n",
            "                                                                                                  \n",
            " swish_22 (Swish)               (None, 10, 10, 480)  0           ['batch_normalization_22[0][0]'] \n",
            "                                                                                                  \n",
            " lambda_7 (Lambda)              (None, 1, 1, 480)    0           ['swish_22[0][0]']               \n",
            "                                                                                                  \n",
            " conv2d_29 (Conv2D)             (None, 1, 1, 20)     9620        ['lambda_7[0][0]']               \n",
            "                                                                                                  \n",
            " swish_23 (Swish)               (None, 1, 1, 20)     0           ['conv2d_29[0][0]']              \n",
            "                                                                                                  \n",
            " conv2d_30 (Conv2D)             (None, 1, 1, 480)    10080       ['swish_23[0][0]']               \n",
            "                                                                                                  \n",
            " activation_7 (Activation)      (None, 1, 1, 480)    0           ['conv2d_30[0][0]']              \n",
            "                                                                                                  \n",
            " multiply_7 (Multiply)          (None, 10, 10, 480)  0           ['activation_7[0][0]',           \n",
            "                                                                  'swish_22[0][0]']               \n",
            "                                                                                                  \n",
            " conv2d_31 (Conv2D)             (None, 10, 10, 80)   38400       ['multiply_7[0][0]']             \n",
            "                                                                                                  \n",
            " batch_normalization_23 (BatchN  (None, 10, 10, 80)  320         ['conv2d_31[0][0]']              \n",
            " ormalization)                                                                                    \n",
            "                                                                                                  \n",
            " drop_connect_3 (DropConnect)   (None, 10, 10, 80)   0           ['batch_normalization_23[0][0]'] \n",
            "                                                                                                  \n",
            " add_3 (Add)                    (None, 10, 10, 80)   0           ['drop_connect_3[0][0]',         \n",
            "                                                                  'add_2[0][0]']                  \n",
            "                                                                                                  \n",
            " conv2d_32 (Conv2D)             (None, 10, 10, 480)  38400       ['add_3[0][0]']                  \n",
            "                                                                                                  \n",
            " batch_normalization_24 (BatchN  (None, 10, 10, 480)  1920       ['conv2d_32[0][0]']              \n",
            " ormalization)                                                                                    \n",
            "                                                                                                  \n",
            " swish_24 (Swish)               (None, 10, 10, 480)  0           ['batch_normalization_24[0][0]'] \n",
            "                                                                                                  \n",
            " depthwise_conv2d_8 (DepthwiseC  (None, 10, 10, 480)  12000      ['swish_24[0][0]']               \n",
            " onv2D)                                                                                           \n",
            "                                                                                                  \n",
            " batch_normalization_25 (BatchN  (None, 10, 10, 480)  1920       ['depthwise_conv2d_8[0][0]']     \n",
            " ormalization)                                                                                    \n",
            "                                                                                                  \n",
            " swish_25 (Swish)               (None, 10, 10, 480)  0           ['batch_normalization_25[0][0]'] \n",
            "                                                                                                  \n",
            " lambda_8 (Lambda)              (None, 1, 1, 480)    0           ['swish_25[0][0]']               \n",
            "                                                                                                  \n",
            " conv2d_33 (Conv2D)             (None, 1, 1, 20)     9620        ['lambda_8[0][0]']               \n",
            "                                                                                                  \n",
            " swish_26 (Swish)               (None, 1, 1, 20)     0           ['conv2d_33[0][0]']              \n",
            "                                                                                                  \n",
            " conv2d_34 (Conv2D)             (None, 1, 1, 480)    10080       ['swish_26[0][0]']               \n",
            "                                                                                                  \n",
            " activation_8 (Activation)      (None, 1, 1, 480)    0           ['conv2d_34[0][0]']              \n",
            "                                                                                                  \n",
            " multiply_8 (Multiply)          (None, 10, 10, 480)  0           ['activation_8[0][0]',           \n",
            "                                                                  'swish_25[0][0]']               \n",
            "                                                                                                  \n",
            " conv2d_35 (Conv2D)             (None, 10, 10, 112)  53760       ['multiply_8[0][0]']             \n",
            "                                                                                                  \n",
            " batch_normalization_26 (BatchN  (None, 10, 10, 112)  448        ['conv2d_35[0][0]']              \n",
            " ormalization)                                                                                    \n",
            "                                                                                                  \n",
            " conv2d_36 (Conv2D)             (None, 10, 10, 672)  75264       ['batch_normalization_26[0][0]'] \n",
            "                                                                                                  \n",
            " batch_normalization_27 (BatchN  (None, 10, 10, 672)  2688       ['conv2d_36[0][0]']              \n",
            " ormalization)                                                                                    \n",
            "                                                                                                  \n",
            " swish_27 (Swish)               (None, 10, 10, 672)  0           ['batch_normalization_27[0][0]'] \n",
            "                                                                                                  \n",
            " depthwise_conv2d_9 (DepthwiseC  (None, 10, 10, 672)  16800      ['swish_27[0][0]']               \n",
            " onv2D)                                                                                           \n",
            "                                                                                                  \n",
            " batch_normalization_28 (BatchN  (None, 10, 10, 672)  2688       ['depthwise_conv2d_9[0][0]']     \n",
            " ormalization)                                                                                    \n",
            "                                                                                                  \n",
            " swish_28 (Swish)               (None, 10, 10, 672)  0           ['batch_normalization_28[0][0]'] \n",
            "                                                                                                  \n",
            " lambda_9 (Lambda)              (None, 1, 1, 672)    0           ['swish_28[0][0]']               \n",
            "                                                                                                  \n",
            " conv2d_37 (Conv2D)             (None, 1, 1, 28)     18844       ['lambda_9[0][0]']               \n",
            "                                                                                                  \n",
            " swish_29 (Swish)               (None, 1, 1, 28)     0           ['conv2d_37[0][0]']              \n",
            "                                                                                                  \n",
            " conv2d_38 (Conv2D)             (None, 1, 1, 672)    19488       ['swish_29[0][0]']               \n",
            "                                                                                                  \n",
            " activation_9 (Activation)      (None, 1, 1, 672)    0           ['conv2d_38[0][0]']              \n",
            "                                                                                                  \n",
            " multiply_9 (Multiply)          (None, 10, 10, 672)  0           ['activation_9[0][0]',           \n",
            "                                                                  'swish_28[0][0]']               \n",
            "                                                                                                  \n",
            " conv2d_39 (Conv2D)             (None, 10, 10, 112)  75264       ['multiply_9[0][0]']             \n",
            "                                                                                                  \n",
            " batch_normalization_29 (BatchN  (None, 10, 10, 112)  448        ['conv2d_39[0][0]']              \n",
            " ormalization)                                                                                    \n",
            "                                                                                                  \n",
            " drop_connect_4 (DropConnect)   (None, 10, 10, 112)  0           ['batch_normalization_29[0][0]'] \n",
            "                                                                                                  \n",
            " add_4 (Add)                    (None, 10, 10, 112)  0           ['drop_connect_4[0][0]',         \n",
            "                                                                  'batch_normalization_26[0][0]'] \n",
            "                                                                                                  \n",
            " conv2d_40 (Conv2D)             (None, 10, 10, 672)  75264       ['add_4[0][0]']                  \n",
            "                                                                                                  \n",
            " batch_normalization_30 (BatchN  (None, 10, 10, 672)  2688       ['conv2d_40[0][0]']              \n",
            " ormalization)                                                                                    \n",
            "                                                                                                  \n",
            " swish_30 (Swish)               (None, 10, 10, 672)  0           ['batch_normalization_30[0][0]'] \n",
            "                                                                                                  \n",
            " depthwise_conv2d_10 (Depthwise  (None, 10, 10, 672)  16800      ['swish_30[0][0]']               \n",
            " Conv2D)                                                                                          \n",
            "                                                                                                  \n",
            " batch_normalization_31 (BatchN  (None, 10, 10, 672)  2688       ['depthwise_conv2d_10[0][0]']    \n",
            " ormalization)                                                                                    \n",
            "                                                                                                  \n",
            " swish_31 (Swish)               (None, 10, 10, 672)  0           ['batch_normalization_31[0][0]'] \n",
            "                                                                                                  \n",
            " lambda_10 (Lambda)             (None, 1, 1, 672)    0           ['swish_31[0][0]']               \n",
            "                                                                                                  \n",
            " conv2d_41 (Conv2D)             (None, 1, 1, 28)     18844       ['lambda_10[0][0]']              \n",
            "                                                                                                  \n",
            " swish_32 (Swish)               (None, 1, 1, 28)     0           ['conv2d_41[0][0]']              \n",
            "                                                                                                  \n",
            " conv2d_42 (Conv2D)             (None, 1, 1, 672)    19488       ['swish_32[0][0]']               \n",
            "                                                                                                  \n",
            " activation_10 (Activation)     (None, 1, 1, 672)    0           ['conv2d_42[0][0]']              \n",
            "                                                                                                  \n",
            " multiply_10 (Multiply)         (None, 10, 10, 672)  0           ['activation_10[0][0]',          \n",
            "                                                                  'swish_31[0][0]']               \n",
            "                                                                                                  \n",
            " conv2d_43 (Conv2D)             (None, 10, 10, 112)  75264       ['multiply_10[0][0]']            \n",
            "                                                                                                  \n",
            " batch_normalization_32 (BatchN  (None, 10, 10, 112)  448        ['conv2d_43[0][0]']              \n",
            " ormalization)                                                                                    \n",
            "                                                                                                  \n",
            " drop_connect_5 (DropConnect)   (None, 10, 10, 112)  0           ['batch_normalization_32[0][0]'] \n",
            "                                                                                                  \n",
            " add_5 (Add)                    (None, 10, 10, 112)  0           ['drop_connect_5[0][0]',         \n",
            "                                                                  'add_4[0][0]']                  \n",
            "                                                                                                  \n",
            " conv2d_44 (Conv2D)             (None, 10, 10, 672)  75264       ['add_5[0][0]']                  \n",
            "                                                                                                  \n",
            " batch_normalization_33 (BatchN  (None, 10, 10, 672)  2688       ['conv2d_44[0][0]']              \n",
            " ormalization)                                                                                    \n",
            "                                                                                                  \n",
            " swish_33 (Swish)               (None, 10, 10, 672)  0           ['batch_normalization_33[0][0]'] \n",
            "                                                                                                  \n",
            " depthwise_conv2d_11 (Depthwise  (None, 5, 5, 672)   16800       ['swish_33[0][0]']               \n",
            " Conv2D)                                                                                          \n",
            "                                                                                                  \n",
            " batch_normalization_34 (BatchN  (None, 5, 5, 672)   2688        ['depthwise_conv2d_11[0][0]']    \n",
            " ormalization)                                                                                    \n",
            "                                                                                                  \n",
            " swish_34 (Swish)               (None, 5, 5, 672)    0           ['batch_normalization_34[0][0]'] \n",
            "                                                                                                  \n",
            " lambda_11 (Lambda)             (None, 1, 1, 672)    0           ['swish_34[0][0]']               \n",
            "                                                                                                  \n",
            " conv2d_45 (Conv2D)             (None, 1, 1, 28)     18844       ['lambda_11[0][0]']              \n",
            "                                                                                                  \n",
            " swish_35 (Swish)               (None, 1, 1, 28)     0           ['conv2d_45[0][0]']              \n",
            "                                                                                                  \n",
            " conv2d_46 (Conv2D)             (None, 1, 1, 672)    19488       ['swish_35[0][0]']               \n",
            "                                                                                                  \n",
            " activation_11 (Activation)     (None, 1, 1, 672)    0           ['conv2d_46[0][0]']              \n",
            "                                                                                                  \n",
            " multiply_11 (Multiply)         (None, 5, 5, 672)    0           ['activation_11[0][0]',          \n",
            "                                                                  'swish_34[0][0]']               \n",
            "                                                                                                  \n",
            " conv2d_47 (Conv2D)             (None, 5, 5, 192)    129024      ['multiply_11[0][0]']            \n",
            "                                                                                                  \n",
            " batch_normalization_35 (BatchN  (None, 5, 5, 192)   768         ['conv2d_47[0][0]']              \n",
            " ormalization)                                                                                    \n",
            "                                                                                                  \n",
            " conv2d_48 (Conv2D)             (None, 5, 5, 1152)   221184      ['batch_normalization_35[0][0]'] \n",
            "                                                                                                  \n",
            " batch_normalization_36 (BatchN  (None, 5, 5, 1152)  4608        ['conv2d_48[0][0]']              \n",
            " ormalization)                                                                                    \n",
            "                                                                                                  \n",
            " swish_36 (Swish)               (None, 5, 5, 1152)   0           ['batch_normalization_36[0][0]'] \n",
            "                                                                                                  \n",
            " depthwise_conv2d_12 (Depthwise  (None, 5, 5, 1152)  28800       ['swish_36[0][0]']               \n",
            " Conv2D)                                                                                          \n",
            "                                                                                                  \n",
            " batch_normalization_37 (BatchN  (None, 5, 5, 1152)  4608        ['depthwise_conv2d_12[0][0]']    \n",
            " ormalization)                                                                                    \n",
            "                                                                                                  \n",
            " swish_37 (Swish)               (None, 5, 5, 1152)   0           ['batch_normalization_37[0][0]'] \n",
            "                                                                                                  \n",
            " lambda_12 (Lambda)             (None, 1, 1, 1152)   0           ['swish_37[0][0]']               \n",
            "                                                                                                  \n",
            " conv2d_49 (Conv2D)             (None, 1, 1, 48)     55344       ['lambda_12[0][0]']              \n",
            "                                                                                                  \n",
            " swish_38 (Swish)               (None, 1, 1, 48)     0           ['conv2d_49[0][0]']              \n",
            "                                                                                                  \n",
            " conv2d_50 (Conv2D)             (None, 1, 1, 1152)   56448       ['swish_38[0][0]']               \n",
            "                                                                                                  \n",
            " activation_12 (Activation)     (None, 1, 1, 1152)   0           ['conv2d_50[0][0]']              \n",
            "                                                                                                  \n",
            " multiply_12 (Multiply)         (None, 5, 5, 1152)   0           ['activation_12[0][0]',          \n",
            "                                                                  'swish_37[0][0]']               \n",
            "                                                                                                  \n",
            " conv2d_51 (Conv2D)             (None, 5, 5, 192)    221184      ['multiply_12[0][0]']            \n",
            "                                                                                                  \n",
            " batch_normalization_38 (BatchN  (None, 5, 5, 192)   768         ['conv2d_51[0][0]']              \n",
            " ormalization)                                                                                    \n",
            "                                                                                                  \n",
            " drop_connect_6 (DropConnect)   (None, 5, 5, 192)    0           ['batch_normalization_38[0][0]'] \n",
            "                                                                                                  \n",
            " add_6 (Add)                    (None, 5, 5, 192)    0           ['drop_connect_6[0][0]',         \n",
            "                                                                  'batch_normalization_35[0][0]'] \n",
            "                                                                                                  \n",
            " conv2d_52 (Conv2D)             (None, 5, 5, 1152)   221184      ['add_6[0][0]']                  \n",
            "                                                                                                  \n",
            " batch_normalization_39 (BatchN  (None, 5, 5, 1152)  4608        ['conv2d_52[0][0]']              \n",
            " ormalization)                                                                                    \n",
            "                                                                                                  \n",
            " swish_39 (Swish)               (None, 5, 5, 1152)   0           ['batch_normalization_39[0][0]'] \n",
            "                                                                                                  \n",
            " depthwise_conv2d_13 (Depthwise  (None, 5, 5, 1152)  28800       ['swish_39[0][0]']               \n",
            " Conv2D)                                                                                          \n",
            "                                                                                                  \n",
            " batch_normalization_40 (BatchN  (None, 5, 5, 1152)  4608        ['depthwise_conv2d_13[0][0]']    \n",
            " ormalization)                                                                                    \n",
            "                                                                                                  \n",
            " swish_40 (Swish)               (None, 5, 5, 1152)   0           ['batch_normalization_40[0][0]'] \n",
            "                                                                                                  \n",
            " lambda_13 (Lambda)             (None, 1, 1, 1152)   0           ['swish_40[0][0]']               \n",
            "                                                                                                  \n",
            " conv2d_53 (Conv2D)             (None, 1, 1, 48)     55344       ['lambda_13[0][0]']              \n",
            "                                                                                                  \n",
            " swish_41 (Swish)               (None, 1, 1, 48)     0           ['conv2d_53[0][0]']              \n",
            "                                                                                                  \n",
            " conv2d_54 (Conv2D)             (None, 1, 1, 1152)   56448       ['swish_41[0][0]']               \n",
            "                                                                                                  \n",
            " activation_13 (Activation)     (None, 1, 1, 1152)   0           ['conv2d_54[0][0]']              \n",
            "                                                                                                  \n",
            " multiply_13 (Multiply)         (None, 5, 5, 1152)   0           ['activation_13[0][0]',          \n",
            "                                                                  'swish_40[0][0]']               \n",
            "                                                                                                  \n",
            " conv2d_55 (Conv2D)             (None, 5, 5, 192)    221184      ['multiply_13[0][0]']            \n",
            "                                                                                                  \n",
            " batch_normalization_41 (BatchN  (None, 5, 5, 192)   768         ['conv2d_55[0][0]']              \n",
            " ormalization)                                                                                    \n",
            "                                                                                                  \n",
            " drop_connect_7 (DropConnect)   (None, 5, 5, 192)    0           ['batch_normalization_41[0][0]'] \n",
            "                                                                                                  \n",
            " add_7 (Add)                    (None, 5, 5, 192)    0           ['drop_connect_7[0][0]',         \n",
            "                                                                  'add_6[0][0]']                  \n",
            "                                                                                                  \n",
            " conv2d_56 (Conv2D)             (None, 5, 5, 1152)   221184      ['add_7[0][0]']                  \n",
            "                                                                                                  \n",
            " batch_normalization_42 (BatchN  (None, 5, 5, 1152)  4608        ['conv2d_56[0][0]']              \n",
            " ormalization)                                                                                    \n",
            "                                                                                                  \n",
            " swish_42 (Swish)               (None, 5, 5, 1152)   0           ['batch_normalization_42[0][0]'] \n",
            "                                                                                                  \n",
            " depthwise_conv2d_14 (Depthwise  (None, 5, 5, 1152)  28800       ['swish_42[0][0]']               \n",
            " Conv2D)                                                                                          \n",
            "                                                                                                  \n",
            " batch_normalization_43 (BatchN  (None, 5, 5, 1152)  4608        ['depthwise_conv2d_14[0][0]']    \n",
            " ormalization)                                                                                    \n",
            "                                                                                                  \n",
            " swish_43 (Swish)               (None, 5, 5, 1152)   0           ['batch_normalization_43[0][0]'] \n",
            "                                                                                                  \n",
            " lambda_14 (Lambda)             (None, 1, 1, 1152)   0           ['swish_43[0][0]']               \n",
            "                                                                                                  \n",
            " conv2d_57 (Conv2D)             (None, 1, 1, 48)     55344       ['lambda_14[0][0]']              \n",
            "                                                                                                  \n",
            " swish_44 (Swish)               (None, 1, 1, 48)     0           ['conv2d_57[0][0]']              \n",
            "                                                                                                  \n",
            " conv2d_58 (Conv2D)             (None, 1, 1, 1152)   56448       ['swish_44[0][0]']               \n",
            "                                                                                                  \n",
            " activation_14 (Activation)     (None, 1, 1, 1152)   0           ['conv2d_58[0][0]']              \n",
            "                                                                                                  \n",
            " multiply_14 (Multiply)         (None, 5, 5, 1152)   0           ['activation_14[0][0]',          \n",
            "                                                                  'swish_43[0][0]']               \n",
            "                                                                                                  \n",
            " conv2d_59 (Conv2D)             (None, 5, 5, 192)    221184      ['multiply_14[0][0]']            \n",
            "                                                                                                  \n",
            " batch_normalization_44 (BatchN  (None, 5, 5, 192)   768         ['conv2d_59[0][0]']              \n",
            " ormalization)                                                                                    \n",
            "                                                                                                  \n",
            " drop_connect_8 (DropConnect)   (None, 5, 5, 192)    0           ['batch_normalization_44[0][0]'] \n",
            "                                                                                                  \n",
            " add_8 (Add)                    (None, 5, 5, 192)    0           ['drop_connect_8[0][0]',         \n",
            "                                                                  'add_7[0][0]']                  \n",
            "                                                                                                  \n",
            " conv2d_60 (Conv2D)             (None, 5, 5, 1152)   221184      ['add_8[0][0]']                  \n",
            "                                                                                                  \n",
            " batch_normalization_45 (BatchN  (None, 5, 5, 1152)  4608        ['conv2d_60[0][0]']              \n",
            " ormalization)                                                                                    \n",
            "                                                                                                  \n",
            " swish_45 (Swish)               (None, 5, 5, 1152)   0           ['batch_normalization_45[0][0]'] \n",
            "                                                                                                  \n",
            " depthwise_conv2d_15 (Depthwise  (None, 5, 5, 1152)  10368       ['swish_45[0][0]']               \n",
            " Conv2D)                                                                                          \n",
            "                                                                                                  \n",
            " batch_normalization_46 (BatchN  (None, 5, 5, 1152)  4608        ['depthwise_conv2d_15[0][0]']    \n",
            " ormalization)                                                                                    \n",
            "                                                                                                  \n",
            " swish_46 (Swish)               (None, 5, 5, 1152)   0           ['batch_normalization_46[0][0]'] \n",
            "                                                                                                  \n",
            " lambda_15 (Lambda)             (None, 1, 1, 1152)   0           ['swish_46[0][0]']               \n",
            "                                                                                                  \n",
            " conv2d_61 (Conv2D)             (None, 1, 1, 48)     55344       ['lambda_15[0][0]']              \n",
            "                                                                                                  \n",
            " swish_47 (Swish)               (None, 1, 1, 48)     0           ['conv2d_61[0][0]']              \n",
            "                                                                                                  \n",
            " conv2d_62 (Conv2D)             (None, 1, 1, 1152)   56448       ['swish_47[0][0]']               \n",
            "                                                                                                  \n",
            " activation_15 (Activation)     (None, 1, 1, 1152)   0           ['conv2d_62[0][0]']              \n",
            "                                                                                                  \n",
            " multiply_15 (Multiply)         (None, 5, 5, 1152)   0           ['activation_15[0][0]',          \n",
            "                                                                  'swish_46[0][0]']               \n",
            "                                                                                                  \n",
            " conv2d_63 (Conv2D)             (None, 5, 5, 320)    368640      ['multiply_15[0][0]']            \n",
            "                                                                                                  \n",
            " batch_normalization_47 (BatchN  (None, 5, 5, 320)   1280        ['conv2d_63[0][0]']              \n",
            " ormalization)                                                                                    \n",
            "                                                                                                  \n",
            " conv2d_64 (Conv2D)             (None, 5, 5, 1280)   409600      ['batch_normalization_47[0][0]'] \n",
            "                                                                                                  \n",
            " batch_normalization_48 (BatchN  (None, 5, 5, 1280)  5120        ['conv2d_64[0][0]']              \n",
            " ormalization)                                                                                    \n",
            "                                                                                                  \n",
            " swish_48 (Swish)               (None, 5, 5, 1280)   0           ['batch_normalization_48[0][0]'] \n",
            "                                                                                                  \n",
            "==================================================================================================\n",
            "Total params: 4,049,564\n",
            "Trainable params: 4,007,548\n",
            "Non-trainable params: 42,016\n",
…
